examples/idsVerification/dnn_3ep.onnx (onnx, 8586 bytes, 7 tensors)

sequential_4/dense_19/MatMul/ReadVariableOp:0 f4 [16, 1]
00000000: 8028 3dbf 2f7c 73bf 2381 94bf 2c5c 943f
00000010: 756d a73f 9c0f 073f 9aa7 5dbf 8220 513f
00000020: 1b48 6ebf f396 48bf f82b ef3f a092 adbf
00000030: 31c2 82bf 770b 3f3f 0d85 30bf c4c9 b13f
-0.73889923 -0.95111364 -1.1601909 1.1590629 1.3080279 0.52758193 -0.86583865 0.8169023
-0.93078774 -0.7835533 1.8685293 -1.3560371 -1.0215513 0.7462687 -0.6895302 1.3889699

sequential_4/dense_18/MatMul/ReadVariableOp:0 f4 [16, 16]
00000000: 6eab 013f 238d 08bf 9399 e83e b469 5dbf
00000010: 0aea 86bd d600 5d3e b13f 233f af12 a5bc
00000020: 5bee fb3e 3267 7a3e a0d4 ccbe 1107 4e3f
00000030: 2496 ae3e 5bd2 17bf f40f a03e 3554 e3be
00000040: 43d2 b93e 9320 e1be c3e9 c73e 538a 70bf
00000050: d2be b33d 1d60 35be 846d 6a3e 0194 b7be
00000060: a60f 93be eb1e 1a3f abae 5bbf 5574 153f
00000070: 253d 073f 117d e03d 6118 823e c703 13bf
00000080: 78a4 f4bd c5f1 f6be 19db 2cbd d947 4e3f
00000090: 6120 eabd 8d58 b8be 771a b3bd 3a0f e73e
000000a0: 6857 1fbe 8fc2 bdbd c45e 383f f62b bd3d
000000b0: 12c9 f73d 6448 aabe 97ed d83b 8c02 403f
000000c0: 69a0 133f d04e dc3e 71f7 843e 55ca 5ebf
000000d0: cafe 30bf 81ff 3ebe f942 d03e fdb4 173e
000000e0: 6c28 ccbd aace 81be a451 4fbf 9402 5dbc
000000f0: 1c18 f13e 8ba5 333b 8ec0 ac3d f61e 26bf
00000100: b0bc f3bc 4bf6 333e 7f9c dabb 9cff 83bf
00000110: 4cd2 003f 5da6 aebd 4db4 dc3e abfa 09bf
00000120: 4736 293e 63e1 343e c9c1 58bf 57fe 36be
00000130: af3e 8c3e a043 8c3e adfc e53e 5a34 ecbf
00000140: 59d3 b1be b793 79be 9a1e 6bbf f509 503f
00000150: ff01 93be 603f 7b3d 4732 9fbe a836 2d3f
00000160: 6dcd febe 4205 b6be 503d c33e 2d43 06bf
00000170: 3404 5fbf 61d3 a23e 4042 a6be 0597 443f
00000180: 3d55 d83f a08d 6b3d 2420 f53f c61f f9bf
00000190: e875 6f3f 4c6c 0abe 0b44 ef3f c6bc e7bf
000001a0: caf0 f03e 979e 0c40 7cf5 2ec0 b83d e63f
000001b0: fff9 fd3f f51a 3d3f 05c4 d93f abf6 04c0
000001c0: c76e 16bf 22e5 e5be dae2 ddbf f61d 043f
000001d0: 0876 113f 9d10 aebe 73e3 71be f350 20bd
000001e0: 768b 623e 645a c5be b761 253f 344b 61bf
000001f0: ee6b e5bf 0b5b d63e 69a2 6cbf 53b9 6f3f
00000200: 15dc 093e bdce 0c3e f9bc 8d3e 17bc fbbe
00000210: 95ec 7bbf a34d 31be ad55 4cbe a747 5f3d
00000220: 4cd5 ca3e 50bc c83e 7889 47bd 44ca 133a
00000230: 552c bb3b 5e97 9c3e 4ed7 15be b749 0abf
00000240: 918e e9be c0d9 6b3f 1c4b 43be 6ab7 bdbe
00000250: bc7c ed3d 5f6a 3b3e 1bdd 5dbf 942c 0f3f
00000260: c0ac 49be 1a31 0cbf f96f aabf 65bd 70bf
00000270: 6c58 36bf 03b2 39bf df96 8dbe c225 58be
00000280: 2545 41bf 126f df3e 1208 1ebf e19a 0abf
00000290: cb8a ed3e be79 0d3e 49f5 00bf 1e52 223f
000002a0: c39b 84be a560 2dbf d26e 1c3f 449e 93bf
000002b0: e559 a0bf 5373 293f 7d93 f7be ea14 c03d
000002c0: 2210 4e3f 4a90 a43e c095 193f f965 233e
000002d0: 128d 87be cc30 ba3d a1b3 133f bce3 2fbe
000002e0: 4805 c3be 074b 6d3f 88be b7be a9a7 7c3f
000002f0: 0396 333f 8230 8bbf 983a 253f 44e5 fe3d
00000300: 8744 853f 0a8e 2dbe b27f 373f c124 7ebe
00000310: 7103 123e c80f 9abe 9961 973f 7850 59bf
00000320: 7326 cc3e ea48 903f 8503 14c0 9a81 8e3f
00000330: 5b0f 3c3f 8afa 0dbf 053f 9d3f 112b 82bf
00000340: 1648 6a3f 19af a73d fc66 743f b45b 37be
00000350: 3fc1 98bf e8f3 b23d 9c3b 983f c5b6 87bf
00000360: 8a0e 643e db1c 903f 3a0b 0f3e d3ba be3e
00000370: a336 853f ac34 ab3d 145b 6d3f 2a77 f73e
00000380: 22a2 973e b6a9 7fbe 2f4e de3e 15ed b0bd
00000390: a781 b1bf 60f9 e93c 5945 543f 8cc7 96be
000003a0: 4b62 633f 3c1f 443f d1db 3cbe b057 dd3e
000003b0: 328b 343f fc86 333c 7010 3b3f 8780 863c
000003c0: f251 d93e 582a b93e a0f5 153f 2079 c9bd
000003d0: cd0a a5be 91c6 c8be 66dc 3fbe f6ad dd3d
000003e0: d9aa 473e 4dae 4dbd b42d 9ebf 8fb3 333e
000003f0: d671 cd3e 39bb 97be 1f72 65bd 3932 6fbe
0.50652206 -0.5334036 0.45429668 -0.86489415 -0.06587608 0.2158235 0.6376906 -0.02015051
0.49205288 0.24453428 -0.4000597 0.8047953 0.34098923 -0.5930535 0.3126217 -0.44400182
0.3629323 -0.43970165 0.39045534 -0.93961066 0.087766305 -0.17712446 0.2289334 -0.35855106
-0.28722876 0.6020343 -0.858134 0.58380634 0.52827674 0.109613545 0.25409225 -0.5742764
-0.119454324 -0.4823133 -0.042201135 0.8057838 -0.11431957 -0.3600506 -0.08745282 0.45128804
-0.15560687 -0.09265625 0.720196 0.092369005 0.12098898 -0.33258355 0.00662012 0.75003886
0.5766664 0.4302888 0.25970033 -0.87027484 -0.6913878 -0.18652155 0.40676096 0.14815135
-0.09968647 -0.25352985 -0.8098395 -0.013489384 0.47088706 0.0027411904 0.084351644 -0.6489099
-0.02975306 0.17574422 -0.006671488 -1.0312381 0.5032089 -0.08527825 0.4310631 -0.53898114
0.16524611 0.17664103 -0.8467069 -0.1787046 0.27391574 0.27395344 0.4491934 -1.8453476
-0.34731558 -0.24372755 -0.9184357 0.81265193 -0.2871246 0.061339736 -0.31093046 0.67661524
-0.49766102 -0.35550886 0.38132715 -0.5244625 -0.8711579 0.31801894 -0.3247242 0.7679294
1.6901013 0.05750811 1.9150434 -1.9462821 0.93539286 -0.13517874 1.869264 -1.8104484
0.47058707 2.1971796 -2.7337332 1.7987585 1.9841918 0.7386926 1.7012945 -2.0775554
-0.5876278 -0.44901377 -1.7334855 0.51608217 0.56820726 -0.3399705 -0.23621921 -0.0391397
0.22123513 -0.38545525 0.64602226 -0.88005376 -1.7923563 0.41866335 -0.9243532 0.9364216
0.13462861 0.1375074 0.27683237 -0.4916694 -0.9840787 -0.17314772 -0.19954558 0.054511692
0.39615858 0.3920617 -0.048715085 0.0005637745 0.005712072 0.30584234 -0.14632913 -0.5401873
-0.45616582 0.92129135 -0.1907162 -0.37053996 0.11596057 0.18302296 -0.86665505 0.55927396
-0.19694805 -0.54762423 -1.3315421 -0.94038993 -0.7122867 -0.7253725 -0.27654168 -0.21108153
-0.7549613 0.43639427 -0.61731064 -0.54142576 0.46394953 0.13815972 -0.50374275 0.6340655
-0.25900087 -0.6772559 0.611066 -1.1532674 -1.2527434 0.66191596 -0.48354712 0.09378989
0.80493367 0.32141334 0.59994125 0.15956868 -0.26474816 0.090913385 0.57695967 -0.17176718
-0.38089967 0.9269261 -0.3588755 0.9869333 0.70150775 -1.0874178 0.6454253 0.12446073
1.0411538 -0.16948715 0.7167922 -0.24818708 0.14259125 -0.30090165 1.182666 -0.8488841
0.39873084 1.1272252 -2.3127148 1.1133301 0.7346093 -0.5546042 1.2284857 -1.0169393
0.91516244 0.08187694 0.9546964 -0.17906076 -1.1933974 0.08737928 1.1893191 -1.0602652
0.22271171 1.1258806 0.13969126 0.3725191 1.0407299 0.08359656 0.927171 0.48333102
0.29615885 -0.24967083 0.43419024 -0.0863897 -1.3867692 0.028561294 0.82918316 -0.29449117
0.8882186 0.7661016 -0.18443228 0.43230963 0.70524895 0.010957476 0.73071957 0.016418708
0.42445332 0.36165118 0.5857792 -0.09837556 -0.32234803 -0.39213994 -0.18736419 0.10824196
0.19498767 -0.050215054 -1.2357697 0.17548965 0.40125912 -0.29635027 -0.056017037 -0.23359002

sequential_4/dense_18/BiasAdd/ReadVariableOp:0 f4 [16]
00000000: 404b 5e3e 5416 70bd 8419 98bd 8a48 dd3d
00000010: 9c61 96be d280 c7bd bbb5 393d 589c 9a3e
00000020: 7ee8 263e 1795 533e 2ef1 cc3e 8036 803d
00000030: 1c2b f7bd df4e 51be 2ceb 3cbd 8e6b 353e
0.21708393 -0.058615044 -0.07426742 0.10804851 -0.29371345 -0.097413674 0.045339327 0.30197406
0.16299626 0.20662342 0.40027755 0.06260395 -0.12068769 -0.20440243 -0.046122715 0.1771681

sequential_4/dense_17/MatMul/ReadVariableOp:0 f4 [16, 16]
00000000: fb3e d6be 5bb3 65bf 6d45 873f 3099 53bf
00000010: e9be 8f3f eecf 6a3f f315 743f c9dd 3e3f
00000020: 71c6 b1be 8cb0 c1bf 442b 6c3e af84 36bf
00000030: ccff 1bc0 e6a9 793f 6794 38bf f51b 12c0
00000040: bfcb 9b3e 393b e3be 42a4 b23e 573f 3fbf
00000050: 7ee4 b6bf 48dd 253f 9246 e9be ec33 1e3f
00000060: 75d9 a2be a96b 9bbf de51 27bf 28e9 9c3e
00000070: 184e ca3e 4c96 c53d 7264 01bf 72c2 d1be
00000080: 8144 ec3d 508b 623b 3e24 1a3f 1829 60be
00000090: dfcc 163f c283 b53c f700 693d 18df a0be
000000a0: c819 bbbe 0a65 40bd e0ba e23e 8340 93be
000000b0: 3779 fdbc 368e 66be 9fc7 b2bd 1556 79be
000000c0: 6e7e 663e 31f3 003e 4dc6 4e3f e074 ffbd
000000d0: f97f 84be 9bdf 4ebd 1268 d1be d101 d13e
000000e0: 6ed5 cebd fbe9 443e 77bb dbbe a841 2bbe
000000f0: adc9 2a3f cf41 0c3f 47e5 283e 228a 1b3e
00000100: f610 debf af14 78bf 171d 333e f87b 27be
00000110: dfe6 223f 2911 8cbe 0117 e73e 67ee 3d3f
00000120: aa1e b2be f923 62be 9925 a33e 412b 563e
00000130: db8e 1bbf 28f3 2fbf 119a 55be 5391 8ebf
00000140: 4fe0 153e 47dd d0be 7ae9 ec3e 0cce 2abf
00000150: 7b3b 63bf f6c2 0fbf 3cb7 383e 8a26 c03e
00000160: 2e54 12bf 14c7 6a3e 0d8b b1bf 3a4d 8fbe
00000170: fc53 17be 2460 923d cf5b f6be e567 d9be
00000180: abcb 053f a90f 1a3f 0a9e 0a3d c24b 403f
00000190: 2189 4e3e 875a 1ebf 37ce a63c 9f06 d2be
000001a0: fea3 213f ce05 73bd 55be 49bf d7a5 b4bc
000001b0: 991f 4f3e 4f34 b9bd 485f 573e 3cb5 213f
000001c0: e18f 56bf 7360 b7be 031f 13be e68a 19bf
000001d0: e643 483e 4bd6 f2bc 318d ab3e 8066 8c3e
000001e0: f74e 453e fb6e 873e 4a8f 9f3e afeb 003f
000001f0: b5ac 07bf de86 5bbd ee0a 79be c408 0d3e
00000200: b372 423f af0a 023f c8ad 12bf 7aba 393f
00000210: 94c4 f43d e2b6 b0bf b7f1 4d3f 302c 1bc0
00000220: a0e7 873e cba9 76bd 06cb c43e 5d9a 0b3f
00000230: c35b 0bbd 5ccf f13e 93d6 003f 6429 1d3f
00000240: cc11 21bf a665 9abe 2a86 92bd a686 64be
00000250: 0f6f 84be a789 a43d cc41 27be a29e 21bf
00000260: efff e0bc fb44 113f 6198 513c d54a 893e
00000270: 697b 01bf 71f6 70bf 4ed3 36bf 518f f9be
00000280: ece6 eb3e 67fe 193f 1633 c23e c4e0 973e
00000290: 191f c8be 4c12 f4bd 30ab 93bf 2f85 163f
000002a0: 64f2 903e fc8c 72bd 55af 05bf c7e2 80bf
000002b0: 8ecd 0d3e bb9c 543e 6ede 133e b4e2 023f
000002c0: f9bd b6bd df25 7a3e 11f7 2c3a 753c a43d
000002d0: 631a 21be 628f 27bf 4307 0d3f f271 673c
000002e0: 0f53 af3e c372 a8bd e776 a4bf c173 f03e
000002f0: 06d2 0d3f ad81 eb3e 573f ff3e 095f 9c3e
00000300: 52bc 59bc 2483 40bd 6881 ea3e 7f3a a8be
00000310: 124d 873e 872d 5ebf ff98 48bf 010f 3fbe
00000320: 22d4 56be d0d9 cbbf 95bc 0b3f a963 efbe
00000330: 6ffe ebbe a375 993e 4d32 0a3f 4eeb 85be
00000340: cea2 2fbf 67b8 1ebf 6d63 aabd 271a c9be
00000350: 6489 3f3f 9af4 cc3d 20ad 1dbf 6cf3 54be
00000360: d052 2fbf bda9 8e3e 9e3d 34bf 02cb 1cbe
00000370: d387 65bf e3a7 87bd e7ad 0ebf 8fcf 44be
00000380: 5d88 7f3d fed6 6a3d df5d 203f b638 0c3f
00000390: 1b73 dfbd 5318 e23e b764 29bf 3fbe 1abe
000003a0: fa72 9a3e c951 803e 938e 82be 6018 8ebe
000003b0: 4250 fd3e 1c8b 973d 513e 4a3e 5a1a 063f
000003c0: 9ddb 873e d990 ca3e aec2 d6be 5465 c63e
000003d0: afd3 1a3f 6884 0fbd 45e2 8f3f 3532 b5bf
000003e0: d427 e93d 114b b33e 496c 333e 7d40 ef3e
000003f0: fb7b bbbd 67ba 2a3d 41ff f33e 1b83 063f
-0.41844925 -0.897268 1.0568062 -0.8265562 1.1230136 0.91723526 0.9534599 0.7455717
-0.3472171 -1.5132003 0.2306338 -0.7129621 -2.4374876 0.9752487 -0.72101444 -2.2829564
0.30428883 -0.4438112 0.34890944 -0.74706024 -1.428848 0.64790773 -0.45561653 0.61797976
-0.31806532 -1.214223 -0.65359294 0.30646634 0.39512706 0.096478075 -0.5054389 -0.40968663
0.115365036 0.00345679 0.6021155 -0.21890676 0.5890636 0.022157554 0.056885686 -0.31420207
-0.36543107 -0.04697136 0.442832 -0.28760156 -0.030941589 -0.22515187 -0.08729481 -0.24349244
0.22509167 0.1259277 0.8077133 -0.12473464 -0.25878885 -0.050506216 -0.40899712 0.40821698
-0.10099302 0.19229881 -0.42916462 -0.16724265 0.6671398 0.54787916 0.16493712 0.15189412
-1.7348926 -0.9690656 0.17491566 -0.16355884 0.6363353 -0.27356842 0.45134738 0.741919
-0.3478902 -0.22084035 0.31864622 0.20914938 -0.60764855 -0.687304 -0.20859553 -1.11381
0.14636348 -0.4079382 0.46271878 -0.6672065 -0.88762635 -0.5615686 0.18038648 0.37529403
-0.571597 0.22927505 -1.387056 -0.27988607 -0.14778131 0.071472436 -0.4811692 -0.42462078
0.522639 0.60180146 0.033842124 0.751156 0.20169498 -0.61856884 0.020362003 -0.41020676
0.6314086 -0.059331708 -0.7880605 -0.022051735 0.20226897 -0.0904318 0.2103244 0.63167167
-0.8381329 -0.35815772 -0.14367299 -0.5997757 0.19557151 -0.029643198 0.33506158 0.2742195
0.19268404 0.2645186 0.31164008 0.50359625 -0.52997905 -0.053595416 -0.24320576 0.13772875
0.7595627 0.5079755 -0.5729642 0.72550166 0.11951557 -1.3805811 0.8044695 -2.424572
0.26543903 -0.06022052 0.38436145 0.54532415 -0.034023058 0.47228515 0.50327414 0.6139128
-0.6291778 -0.30155677 -0.07154496 -0.2231699 -0.2586598 0.080340676 -0.16333693 -0.6313268
-0.027465789 0.5674588 0.012792678 0.26814905 -0.50578934 -0.9412604 -0.71416175 -0.48742154
0.46074617 0.6015381 0.379296 0.2966367 -0.39086226 -0.11917552 -1.1536617 0.5879697
0.2830993 -0.059216484 -0.5222066 -1.0069207 0.13847944 0.20762913 0.14440319 0.5112717
-0.08922953 0.24428509 0.0006598095 0.08019344 -0.15732722 -0.6545316 0.55089206 0.014126288
0.34243056 -0.08225014 -1.2848786 0.46963313 0.55398595 0.45997372 0.49853012 0.30541256
-0.013289528 -0.047000065 0.45801854 -0.3285713 0.26425987 -0.8678822 -0.78358454 -0.18658067
-0.2097936 -1.5925846 0.5458463 -0.46755722 -0.46092555 0.29972562 0.53983 -0.26156086
-0.68607795 -0.62000126 -0.08319745 -0.39277765 0.74819016 0.100075915 -0.6159229 -0.20795983
-0.68485737 0.27863875 -0.7040652 -0.15311816 -0.89660376 -0.06623819 -0.55734104 -0.19219802
0.062385906 0.05733394 0.62643236 0.54774034 -0.109106265 0.44159183 -0.66169304 -0.15111636
0.30165845 0.25062397 -0.254994 -0.27752972 0.49475294 0.0739958 0.19750334 0.5238396
0.2653474 0.39563635 -0.41945404 0.38749182 0.60479254 -0.03503838 1.1240927 -1.4155947
0.1138455 0.3501821 0.17521776 0.46728888 -0.09154507 0.041681673 0.4765568 0.525438

sequential_4/dense_17/BiasAdd/ReadVariableOp:0 f4 [16]
00000000: 712e 6b3d 9d8f 193e bc24 303e b4da 563e
00000010: 9a7b bc3d 889b 8a3e 96e3 993d 8c1a b13a
00000020: 79f2 3e3e cc45 6dbc d341 2c3e e54f f03d
00000030: 51ea 42bc 15ca 1d3d 23f5 843d dd49 37bd
0.057417337 0.1499619 0.17201513 0.20981866 0.092032626 0.27071786 0.07514112 0.001351194
0.18647183 -0.014481973 0.16821985 0.11733989 -0.011896686 0.0385228 0.064920686 -0.044748176

sequential_4/dense_16/MatMul/ReadVariableOp:0 f4 [64, 16]
00000000: 1698 5b3d ee02 14be 1393 03bd 3cc0 2f3e
00000010: e42f 3bbf f58d 123d d726 cd3e 307f b83d
00000020: b412 d33d 8c3f de3a 796b 91be f3d7 6d3e
00000030: afa9 9f3e 06cd 543e a5bf 923e 95a3 91be
00000040: aee2 c73e 8896 88be 84d0 9bbe c58b 0c3c
00000050: 4392 06bd 61a7 17be f5bb e83d 5739 073e
00000060: e361 953e 2f50 afbe 5062 753e 2402 62bd
00000070: 35c6 08bf a51b b9bc f5fd b7be bb97 2bbf
00000080: 9f10 a3bf ac0a 27bf 36bc b3be 3b96 80be
00000090: 0222 2f3d 1535 97be 3780 643f 68b7 fbbe
000000a0: aea9 4bbe 1d56 82be 3499 9f3e 3e68 ca3e
000000b0: 87ac 47bf edc4 1bbf 0f16 99be d2f7 373f
000000c0: 46a2 5d3e 8055 563d 54ee 9a3e cfa4 193e
000000d0: 4b5b f8be ba1f 61bd 0240 a63e c019 b7be
000000e0: e45d cf3e be14 f7bd 920e f7bd 5db2 ba3e
000000f0: 4b5d b2be 7d1a 10bf 1dcd 153e 4661 853f
00000100: b267 95bd 4d00 efbe 26bc abbd 3cb9 41bd
00000110: a6e9 20be 7935 c4be fec0 f83e c4af 88be
00000120: df74 a23e 1fa3 ebbe b62d e2bb c527 ddbd
00000130: 0a68 b3be 7dab 0dbf 3437 603d 2dac 8c3e
00000140: c178 63be 2caf 2bbf 2d2d a93e 2d1a b43e
00000150: bf39 af3e 6d80 00bf 6ec2 febd ecee d43e
00000160: 22c9 8cbf 22d9 863d 72ee c2be 77ac 18bf
00000170: 6f49 833f 02eb d2bf 2350 18bf 1a70 673e
00000180: 15fc 4b3f 048c 6cbe 72cd 41bf 1fdb 45bf
00000190: 3f0b 8b3f 9e16 313d 57df 8dbc 63e1 483f
000001a0: 91e2 71bf 8f29 b2bc fad3 67bf 98a2 0bbd
000001b0: 4a6f c03e 9083 c8bf 8d0b 80be fef4 3f3e
000001c0: 8e3c 893e 7ab3 e3be 6e58 45bf 4641 a7be
000001d0: 2c0b 133f d2b6 88bd 0a68 a43e 1041 fe3e
000001e0: 9ead e1be e9ae 31be 3ae8 25be e0f3 043f
000001f0: ed4f c33c c941 a4bf 8a6c 76be 9024 c13e
00000200: 8275 8cbe 56d3 3bc0 0c02 b0bb bb1b d83d
00000210: ee07 5d3e a15f a9bf cd80 b73e 2930 92bf
00000220: b7a8 203f 99d3 24be 8dbb 253e b461 9c3e
00000230: 6543 823e 0623 07c0 7651 41bd 276e 203e
00000240: 2ffd 2ebe 3c02 783d 83db 9e3e c020 d7be
00000250: 52d0 84be 86fc d63d f07e eabe 3385 86bd
00000260: a274 a5be cf9a 553e 098e 3abe b2c2 d5bd
00000270: 939f 713f 86dd 003f 2750 17bf 355e dfbe
00000280: 04ff b03e 003d a73e f4dd 8abd 4282 a63e
00000290: 4ce9 0e3e aacd 343e 87e4 cebe cf82 073e
000002a0: c8d6 eebe c599 853e 897e b93e 1b78 54be
000002b0: 1cb7 5d3e a243 f9bd 43ea 673e 44e8 18c0
000002c0: 85d2 953e 9dd4 853e 5b3f 84be af61 173f
000002d0: a3ad 88be e227 673e bbb5 493d 0a81 843e
000002e0: f2f4 5d3e b372 e5bd 208e 1a3e 0211 743c
000002f0: 2aec 70be 1fdb 923d bf20 88be 7fe0 2dbf
00000300: 0cc1 50be 7e4a 22bd 9dc3 063f 1efc de3d
00000310: 828d a23d 27d2 663f ea21 a2be ccbd 8f3e
00000320: ddf6 213d 7abe 9e3d ebd7 a4bd 6288 17bf
00000330: 7ebd 5e3e 10d9 f73d 751f 413d 14dc 813f
00000340: 3a3e 3e3e dbff babe d667 a0bf 6ebe 4e3e
00000350: 61b4 ab3e 1555 053d 87ff fe3e e5c9 03be
00000360: a531 3dbf 9f00 c63d 4a44 233f 2739 09bf
00000370: 73a7 f3bc 99ef 70be aced 633e 3fca 103f
00000380: e945 823d 1cc6 bdbe 41da f43a 2713 cebd
00000390: e995 e4bf b3cb 96be 243e 493e d9c2 febd
000003a0: 6e50 38be c386 a2bd 6110 0a3e 7b57 1ebe
000003b0: 4459 d7bc 3b1c ba3e 5ab8 6c3d 12b5 433a
000003c0: 7cfd 1fbd f821 6a3d 3b4d 92bf cb74 1cbd
000003d0: 9f4f 05be 886d 243e a91f 2e3e a6ca 273e
000003e0: df31 0cbe 78ed a03e b0e7 8e3e 962a 08be
000003f0: 3d0d 48be f3ed fcbd 90f8 1c3d ef71 133e
0.053611837 -0.14454243 -0.032122683 0.17163175 -0.7311995 0.035779912 0.40068695 0.09008634
0.10306302 0.0016956194 -0.28402308 0.2322691 0.31184146 0.20781335 0.28661838 -0.28445116
0.3904013 -0.26677346 -0.30432522 0.0085782455 -0.03285433 -0.14809944 0.11363975 0.13205467
0.29176244 -0.34240863 0.23963284 -0.055177823 -0.5342744 -0.02259619 -0.3593594 -0.670284
-1.2739447 -0.6525066 -0.3510453 -0.25114617 0.04275704 -0.29532686 0.8925814 -0.49163365
-0.19888946 -0.25456324 0.31171572 0.39532655 -0.7799763 -0.6084736 -0.29899642 0.7186252
0.21643934 0.052327633 0.30259955 0.15004276 -0.4850715 -0.054961897 0.3247071 -0.35761833
0.4050132 -0.12064503 -0.12063326 0.36464205 -0.34836802 -0.5629042 0.14629026 1.042031
-0.07295169 -0.46679917 -0.08385496 -0.047295794 -0.1571413 -0.38322046 0.4858474 -0.266966
0.3172979 -0.4602289 -0.006902422 -0.10798601 -0.35040313 -0.55339795 0.054740146 0.2747511
-0.22214033 -0.67064166 0.3304228 0.3517622 0.34223744 -0.5019596 -0.12439428 0.41588533
-1.0998881 0.065843835 -0.38072544 -0.5963816 1.0256785 -1.6477969 -0.5949728 0.22601357
0.7968152 -0.23100287 -0.7570411 -0.7728748 1.0862807 0.04323446 -0.01731841 0.7846891
-0.9448634 -0.021748332 -0.90557826 -0.03409061 0.37584907 -1.566515 -0.25008813 0.18745801
0.26804012 -0.44472867 -0.7708806 -0.32666987 0.5743892 -0.06675495 0.32110626 0.49659014
-0.44077772 -0.17351879 -0.16201869 0.51934624 0.023841823 -1.2832576 -0.24064842 0.37723207
-0.274334 -2.934774 -0.0053713378 0.10552164 0.21585056 -1.3232309 0.35840455 -1.1420947
0.6275744 -0.16096343 0.16184826 0.30543292 0.25442043 -2.1115127 -0.047196828 0.1566702
-0.1708877 0.060549006 0.3102685 -0.42017174 -0.25940186 0.10497384 -0.4579997 -0.065683745
-0.32315546 0.20859836 -0.18218245 -0.10437526 0.94384116 0.5033802 -0.5910668 -0.43626562
0.3456956 0.32663727 -0.067806154 0.32521254 0.13956183 0.1765658 -0.40408728 0.13233493
-0.4664824 0.2609388 0.3622935 -0.20748942 0.21651882 -0.12171103 0.22647958 -2.3891764
0.29262176 0.26138774 -0.25829586 0.5913343 -0.26694974 0.22573808 0.049245577 0.258797
0.2167547 -0.11203518 0.15093279 0.014896633 -0.2352759 0.071707 -0.26587483 -0.6792068
-0.20386142 -0.039621823 0.5264223 0.10887931 0.07937147 0.9016442 -0.316665 0.2807449
0.039542068 0.07751174 -0.080489956 -0.5919248 0.21751973 0.12101948 0.04714914 1.0145288
0.18578425 -0.36523327 -1.2531688 0.2018983 0.33536056 0.032551844 0.49804327 -0.12869985
-0.73903877 0.09668087 0.63776076 -0.5360283 -0.029742932 -0.23528899 0.22258633 0.56558603
0.063609906 -0.37065208 0.0018680767 -0.10062247 -1.7858249 -0.29452285 0.19652611 -0.12439508
-0.17999431 -0.0793586 0.1348281 -0.15463059 -0.026287682 0.36349663 0.057793 0.0007465641
-0.0390601 0.0571613 -1.1429819 -0.03819732 -0.13018654 0.16057408 0.17004265 0.16385898
-0.136909 0.31431174 0.2791114 -0.13297495 -0.195363 -0.12350073 0.038322985 0.14398931

sequential_4/dense_16/BiasAdd/ReadVariableOp:0 f4 [16]
00000000: 3c6e d9bb e5e2 603e 2439 0cbc d673 4e3d
00000010: bcac cabd 8e3b 03bd 0538 3e3e 1272 7bbc
00000020: d500 ed3d 782c c13d 7617 f23d c918 a43d
00000030: 0811 54bd 3023 0b3e 8052 013e 8626 f43d
-0.0066354554 0.21961553 -0.008558545 0.05040344 -0.09896228 -0.032039218 0.18576057 -0.015347021
0.11572424 0.0943231 0.11820881 0.0801254 -0.051774055 0.13587642 0.12629128 0.1192141
